models/03_pytorch_computer_vision_model_2.pth (torch, 35762 bytes, 10 tensors)

conv_block_1.0.weight f4 [10, 1, 3, 3]
0	0x3d9e80b4	0.07739392
1	0x3c3d8d95	0.0115694
2	0xbea261d7	-0.3171527
3	0xbdf6c837	-0.12049907
4	0xbed2afd6	-0.41149777
5	0x3ecb5a6f	0.39717433
6	0x3d96f885	0.0737162
7	0xbe532fc7	-0.20623694
8	0x3e5f6c94	0.21818763
9	0xbdc7e0de	-0.09759687
10	0x3ec4032a	0.38283664
11	0xbd919fb1	-0.07110537
12	0x3bb1a18d	0.0054208697
13	0x3ef507a2	0.47857386
14	0x3e89b229	0.26893738
15	0xbe09dd9e	-0.13463446
16	0x3d037553	0.03209431
17	0x3c938780	0.018008947
18	0x3eb09cb6	0.3449456
19	0xbd2ab711	-0.041678492
20	0xbe739562	-0.23787454
21	0x3de9dd69	0.11419184
22	0x3d08b3b1	0.033374492
23	0xbe917bfc	-0.28414905
24	0xbd8a3d95	-0.06750027
25	0x3eeabf5d	0.45849124
26	0xbd068a8f	-0.032846984
27	0xbf1e3dd6	-0.61813104
28	0x3e4bd769	0.19906391
29	0xbd57f27a	-0.052721478
30	0x3d9374b3	0.07199993
31	0x3eb7af81	0.35876086
32	0x3eb3469e	0.35014814
33	0xbdc09276	-0.09402935
34	0xbd1c2d72	-0.038129278
35	0xbe49c6a7	-0.19704686
36	0x3b468a80	0.0030294955
37	0xbe21148e	-0.15730497
38	0x3e6a9a3a	0.22910395
39	0xbe370083	-0.17871289
40	0x3d57fd68	0.0527319
41	0xbe830884	-0.25592434
42	0xbd298858	-0.041389793
43	0xbd93180c	-0.07182321
44	0xbe088dc8	-0.13335335
45	0x3e0b3ddd	0.13597818
46	0xbeb7e5b4	-0.35917437
47	0x3cfbb6e7	0.030726863
48	0x3d904977	0.07045262
49	0x3e134d88	0.14385045
50	0x3ed604b1	0.41800454
51	0x3e226eed	0.15862627
52	0x3ece9fe9	0.40356377
53	0xbe0c4321	-0.13697483
54	0x3d8fa481	0.070137985
55	0xbea016b5	-0.31267324
56	0xbe9f6d64	-0.31138146
57	0x3ec4ab98	0.38412166
58	0x3d730306	0.059329055
59	0x3d3c2205	0.04593088
60	0xbed5da4f	-0.4176812
61	0x3ee104c9	0.43948963
62	0x3e867819	0.26263502
63	0xbf07c94f	-0.5304155
64	0xbf35e049	-0.71045357
65	0xbf4d87d7	-0.802854
66	0x39e8b4ee	0.0004438529
67	0xbf0ce4d8	-0.5503669
68	0xbf71a3eb	-0.94390744
69	0x3e35e8ba	0.1776456
70	0xbf1d6159	-0.61476666
71	0xbf566b45	-0.8375743
72	0xbc8a0eba	-0.016852725
73	0xbf84e5a7	-1.0382584
74	0x3e27d778	0.16390789
75	0xbe8866a3	-0.26640806
76	0xbf513a38	-0.8172946
77	0x3ecb6e81	0.39732745
78	0x3f3443fe	0.7041625
79	0xbc859289	-0.016305225
80	0x3ef118aa	0.4708913
81	0x3c3e12fe	0.011601208
82	0x3ed5eb31	0.41781
83	0xbeadc19b	-0.33936772
84	0x3e84bb49	0.25924137
85	0x3e050d4c	0.12993354
86	0x3ea8c2f1	0.32961228
87	0xbf34b893	-0.7059414
88	0x3d8595e1	0.06522728
89	0xbba6631c	-0.0050777327

conv_block_1.0.bias f4 [10]
0	0x3dc52227	0.09625655
1	0x3d5f86de	0.05457198
2	0x3d27e55e	0.040990226
3	0xbdb80ca2	-0.089867845
4	0xbe8706ba	-0.2637232
5	0x3d05ce13	0.03266723
6	0x3d4ec82f	0.05048388
7	0x3eb870ba	0.36023504
8	0xbdd92322	-0.10602404
9	0x3d847b7d	0.06468866

conv_block_1.2.weight f4 [10, 10, 3, 3]
0	0x3cc0576d	0.023479188
1	0xbd800959	-0.06251783
2	0x3c1ef1ab	0.009701173
3	0xbcf9e53e	-0.030504819
4	0xbcffa312	-0.031205688
5	0xbdef123b	-0.11673399
6	0xbd373e35	-0.04473706
7	0x3d66690f	0.056252535
8	0x3c6d76ec	0.014493685
9	0xbdbd88b4	-0.0925459
10	0xbcbc202d	-0.022964561
11	0x3ce47f0b	0.02789261
12	0xbd3fddcb	-0.046842378
13	0xbcc152cd	-0.023599053
14	0x3c8c1ccc	0.017103575
15	0x3dae7fa2	0.08520438
16	0x3dadafc9	0.08480794
17	0xbde5fcb7	-0.11229842
18	0xbde7ec66	-0.11324386
19	0x3d67938b	0.056537192
20	0xbcfcfd40	-0.030882478
21	0x3da857f1	0.082198985
22	0x3d6e4f26	0.05818095
23	0xbd77242c	-0.06033723
24	0x3c762363	0.015023085
25	0x3c7f9832	0.015600251
26	0xbd760e8a	-0.06007246
27	0x3dc037e2	0.09385659
28	0x3c02c041	0.007980407
29	0xbd118419	-0.03552637
30	0xbdc6bb6f	-0.09703719
31	0x3dab9d95	0.08379666
32	0xbdd84171	-0.10559357
33	0x3da33971	0.079699405
34	0xbd186250	-0.037203133
35	0xbca27b9e	-0.019834336
36	0x3c694c00	0.014239311
37	0x3dd435f9	0.10361857
38	0xbd8e1c5e	-0.06939004
39	0xbd99513e	-0.07486199
40	0x3d81c2b7	0.06335967
41	0xbd51b2ab	-0.05119578
42	0xbd1ee346	-0.038790964
43	0x3d7998e6	0.06093683
44	0xbd32f822	-0.04369367
45	0x3d90c433	0.07068672
46	0xbd54eca6	-0.051983498
47	0x3d7a8b40	0.061167955
48	0x3debcff6	0.11514275
49	0x3b8df83f	0.0043325718
50	0xbd57f816	-0.052726828
51	0x3d8789e7	0.066181
52	0x3c85f6e9	0.016353087
53	0xbca18cfb	-0.019720545
54	0x3dadae1b	0.084804736
55	0xbd162ca7	-0.036663678
56	0xbc571938	-0.013128571
57	0xbd206309	-0.039156947
58	0xbd3cdf4b	-0.046111386
59	0xbd4459f2	-0.04793734
60	0xbc2993b6	-0.010350158
61	0x3c23423a	0.00996452
62	0x3cea3b5b	0.028592756
63	0x3b5a6f50	0.0033330508
64	0xbdba0b62	-0.09084202
65	0x3d65cf13	0.056105684
66	0x3b45f7e8	0.0030207578
67	0xbc464b7a	-0.012102956
68	0xbcfb16d2	-0.03065053
69	0xbe093540	-0.1339922
70	0xbdf18b7c	-0.11794183
71	0xbd3c3a82	-0.045954235
72	0xbd9ce3c9	-0.07660634
73	0x3d189510	0.037251532
74	0xbdc0a75f	-0.094069235
75	0xbdbc5f66	-0.09197883
76	0xbd412ba7	-0.04716077
77	0x3d7e970a	0.06215576
78	0x3dad20b3	0.084535025
79	0xbdb4ebfd	-0.08834074
80	0xbd84b4f3	-0.06479826
81	0xbb9b5f3f	-0.004741579
82	0xbd6e1e43	-0.05813433
83	0xbe0f79c9	-0.14011301
84	0x3c070d5d	0.008242932
85	0xbdf3916c	-0.118929714
86	0xbd251139	-0.040299628
87	0x3ca849a4	0.020542927
88	0x3d893512	0.066995755
89	0xbe0aec3d	-0.1356668
90	0x3e1c99f9	0.15293111
91	0xbdfbfbad	-0.12303863
92	0x3e409024	0.18804985
93	0x3c390644	0.011292998
94	0xbd560633	-0.052252006
95	0xbc3415e8	-0.010991551
96	0xbdd78c7c	-0.10524842
97	0x3d71d657	0.0590423
98	0xbd685606	-0.056722663
99	0xbb58d8da	-0.0033088238
100	0x3db2f3f7	0.08737939
101	0x3d767ce9	0.060177717
102	0x3d57887d	0.0526204
103	0x3e215145	0.15753658
104	0xbe5abca7	-0.21361028
105	0x3d88f083	0.06686499
106	0xbd54bbcd	-0.051936913
107	0xbba08e1c	-0.0048997533
108	0x3d5a3f68	0.053283125
109	0x3d837364	0.064184934
110	0x3dcb2898	0.09919852
111	0x3d51aa8b	0.051188033
112	0x3d9b7aba	0.075917676
113	0xbb53fa0c	-0.0032345084
114	0x3e0d4a93	0.13797979
115	0x3b844c34	0.0040374044
116	0xbe147f30	-0.14501643
117	0xbd1f8da8	-0.038953453
118	0x3d90f138	0.07077259
119	0xbd2ecba1	-0.042674664
120	0x3cf1501f	0.02945715
121	0xbd9e54dd	-0.0773103
122	0xbe36322f	-0.17792581
123	0xbcac09d4	-0.02100078
124	0x3cf9659b	0.030443957
125	0xbd0e5789	-0.03475145
126	0x3dca7273	0.09885111
127	0xbd41151a	-0.047139265
128	0xbd3f1c3e	-0.046657793
129	0xbd33d11e	-0.0439006
130	0xbda46c10	-0.08028424
131	0x3dc96091	0.09832872
132	0xbd73ee9b	-0.059553724
133	0xbd4240b0	-0.047424972
134	0xbd02d264	-0.031938925
135	0x3e7c099f	0.24613045
136	0x3bed0bb6	0.007234062
137	0x3d6c06df	0.05762374
138	0x3de67357	0.11252468
139	0xbb7d4411	-0.0038645307
140	0x3d6bcd4a	0.057568826
141	0x3df7c1d6	0.12097518
142	0x3b176c36	0.002310527
143	0x3cfc5909	0.030804174
144	0x3dff39e7	0.12462216
145	0xbd61d7c9	-0.05513743
146	0x3cdd5d39	0.027021991
147	0x3d9fce2f	0.07802998
148	0xbde9175c	-0.113814086
149	0x3d7f2ce2	0.062298663
150	0x3d1d7981	0.038445953
151	0x3ddad120	0.10684419
152	0xbe571765	-0.21005018
153	0xbe82bfea	-0.25537044
154	0x3d02c1db	0.031923156
155	0x3e8e9af8	0.27852607
156	0xbe47cd53	-0.19511919
157	0xbdaa2ab2	-0.08308925
158	0x3e3dea8f	0.18546508
159	0xbdf1a6f5	-0.11799423
160	0xbdfbdc15	-0.12297837
161	0x3d926ff9	0.07150263
162	0x3e40f471	0.18843247
163	0xbe70a47e	-0.23500249
164	0x3dd8a1d8	0.10577744
165	0xbdf22ff8	-0.118255556
166	0xbe87559a	-0.26432496
167	0xbdaabe27	-0.0833705
168	0x3c594cda	0.013262952
169	0x3db8a154	0.09015146
170	0xbd97e943	-0.07417538
171	0xbe20b934	-0.1569565
172	0xbe15c875	-0.1462725
173	0x3c20f465	0.009823893
174	0xbe34b8f3	-0.17648678
175	0xbd233606	-0.039846443
176	0xbdbc64bd	-0.09198902
177	0x3dd3aa7c	0.10335252
178	0x3db0f8d5	0.08641211
179	0xbb305a3a	-0.0026909248
180	0xbc829a32	-0.015942667
181	0xbe20096d	-0.15628596
182	0x3d5e8aa0	0.05433142
183	0x3dfe92a4	0.12430313
184	0x3e86fd02	0.26364905
185	0xbe7eea39	-0.24894036
186	0x3ded68f6	0.11592285
187	0x3d29d0fa	0.04145906
188	0xbe58f5b0	-0.21187472
189	0xbe0064bd	-0.12538429
190	0x3cfae680	0.03062749
191	0xbc77d5d2	-0.015126662
192	0xbeab6b57	-0.3348033
193	0x3e0cfdb1	0.1376865
194	0x3e95b788	0.29241586
195	0xbef786db	-0.48345074
196	0x3dcb6a76	0.09932415
197	0x3e7d8033	0.24755935
198	0xbe2ebb96	-0.17063746
199	0xbe373105	-0.17889793
200	0x3d60a9c4	0.0548494
201	0xbd611dac	-0.054959938
202	0xbdb16959	-0.086626716
203	0x3e4be8d6	0.19913039
204	0xbc92ffc4	-0.017944224
205	0xbe6c8225	-0.23096521
206	0x3e2a39d8	0.16623628
207	0x3cb64c7c	0.022253267
208	0xbdd952d7	-0.106115036
209	0xbd4c9272	-0.04994435
210	0x3db79ce9	0.08965475
211	0xbe158cc9	-0.14604487
212	0xbe138181	-0.1440487
213	0x3d5f0f5f	0.05445802
214	0xbd60a5f3	-0.05484576
215	0xbdcf2e79	-0.10116286
216	0xbcb0be64	-0.02157516
217	0xbbc7bf10	-0.0060957745
218	0xbcef7c00	-0.029233932
219	0x3d9fdde1	0.07805992
220	0x3d6f40c6	0.058411382
221	0x3d07cc7e	0.033154003
222	0xbd0a73bc	-0.03380178
223	0xbc19f050	-0.009395674
224	0x3d8bf549	0.06833894
225	0xbe1cf7f5	-0.15328963
226	0xbe985c6a	-0.29758006
227	0x3e3445e1	0.17604782
228	0xbe280e6c	-0.16411752
229	0xbd24fbfc	-0.040279374
230	0x3e89198a	0.26777297
231	0xbdd9cd4b	-0.1063486
232	0x3d667743	0.05626608
233	0x3d869019	0.06570453
234	0xbead5d7c	-0.33860385
235	0x3d0d21af	0.03445595
236	0x3e77cae6	0.24198493
237	0xbe3ce5e9	-0.18447079
238	0xbda25a1c	-0.07927343
239	0x3dd022f8	0.1016292
240	0xbbf840a8	-0.007576067
241	0xbdf005ac	-0.11719832
242	0x3d4eb9a6	0.050470017
243	0xbd8f9d49	-0.07012422
244	0xbda4ec0d	-0.080528356
245	0xbe81f863	-0.25384817
246	0x3e5927c6	0.21206579
247	0xbde549cb	-0.111957155
248	0xbe39bf64	-0.18139416
249	0x3e0093aa	0.1255633
250	0xbe0f8297	-0.1401466
251	0xbdc1bcd1	-0.09459842
252	0x3ab57f6d	0.001384718
253	0xbe78e2b5	-0.24305232
254	0x3bde0421	0.0067753945
255	0x3dbffeda	0.09374781

conv_block_1.2.bias f4 [10]
0	0xbe928b1d	-0.2862176
1	0xbc9135f7	-0.017725928
2	0x3e1b2f34	0.15154725
3	0x3d4cdf3c	0.05001758
4	0x3e0ac86c	0.13553017
5	0x3de43623	0.11143138
6	0x3e47b857	0.19503914
7	0x3c5fd0d7	0.013660631
8	0x3e8bde3a	0.27317983
9	0x3e738973	0.23782901

conv_block_2.0.weight f4 [10, 10, 3, 3]
0	0xbc01c4de	-0.007920472
1	0xbcb1be26	-0.021697115
2	0xbdd24891	-0.10267747
3	0xbd941129	-0.072298355
4	0xbd08e676	-0.03342291
5	0x3da5ea3e	0.08101319
6	0x3d327957	0.04357275
7	0xbdc49485	-0.0959864
8	0xbd9a8531	-0.075449355
9	0xbd8b5679	-0.06803603
10	0x3dbf6894	0.093461186
11	0x3c90d3ab	0.017679056
12	0x3da87fd0	0.08227503
13	0xbdb42dc3	-0.08797791
14	0x3dbd0b35	0.09230653
15	0x3db4e575	0.08832828
16	0x3b6b8671	0.0035938288
17	0xbd670a73	-0.05640645
18	0x3d1c66d2	0.038183995
19	0xbd96ae4e	-0.07357465
20	0xbd600e8f	-0.054701384
21	0x3d353e82	0.044249065
22	0xbdb82bdf	-0.08992743
23	0x3c8744f6	0.016512375
24	0xbc91baa9	-0.017789202
25	0xbc05ed82	-0.008174302
26	0xbc5a1999	-0.013311767
27	0x3ccfbf17	0.025359673
28	0xbd83da57	-0.064381294
29	0x3d2903d1	0.041263405
30	0xbdcefe4f	-0.10107099
31	0x3d4a65c3	0.049413454
32	0xbdaa13b8	-0.08304542
33	0x3dd0255a	0.10163374
34	0x3cd28657	0.025698824
35	0x3d1d92ef	0.038470205
36	0x3d027e47	0.03185871
37	0x3ca198c4	0.019726165
38	0xbd2f963a	-0.042867877
39	0xbdcaa8d8	-0.09895486
40	0x3d7a6612	0.061132498
41	0x3d6877ff	0.056755062
42	0xbca6c06c	-0.020355426
43	0x39937d82	0.00028131536
44	0xbbbca972	-0.005757504
45	0xbcd552e9	-0.026040511
46	0x3d8ae7a8	0.06782466
47	0xbd8a556b	-0.067545734
48	0xbdcd5cd6	-0.10027473
49	0xbc7f5af4	-0.01558565
50	0xbd7d63d2	-0.061862774
51	0xbd902f33	-0.070402525
52	0xbd03be33	-0.03216381
53	0x3bb62c55	0.005559484
54	0x3d84b620	0.0648005
55	0x3d5bea90	0.053690493
56	0x3da26aa5	0.07930497
57	0x3d997d77	0.07494634
58	0x3cf1cec1	0.029517533
59	0xba9d217e	-0.0011988131
60	0xbb9a734e	-0.0047134524
61	0xbdab707b	-0.08371063
62	0x3c6cb62e	0.014447732
63	0xbcb6d8bb	-0.022320142
64	0xbce2065f	-0.027590929
65	0x3db5f241	0.08884097
66	0x3d4b9b8a	0.04970888
67	0x3d8e855d	0.06959031
68	0x3d879b95	0.06621472
69	0xbd77d26a	-0.0605034
70	0x3d033453	0.032032322
71	0xbc3f4868	-0.011674978
72	0x3d1f2ded	0.038862158
73	0x3d4385f4	0.04773517
74	0xbd10dc2f	-0.035366233
75	0x3da72e7f	0.08163165
76	0xbb3c2356	-0.0028707585
77	0xbcdee9c7	-0.027211083
78	0x3d70f246	0.0588248
79	0x3d9eefa0	0.077605486
80	0xbd1dc77a	-0.038520314
81	0x3d50669d	0.05087911
82	0xbd3f0427	-0.04663482
83	0xbcf59f14	-0.02998308
84	0xbdbbfd6b	-0.09179195
85	0xbd58e7b2	-0.052955337
86	0xbc1b019a	-0.009460831
87	0xbd32c6bc	-0.04364656
88	0xbcd8f3a4	-0.026483364
89	0xbc03bdbe	-0.0080408435
90	0xbd5f4927	-0.054513123
91	0x3d06e156	0.03292974
92	0x3ce5806b	0.028015336
93	0x3da49ac6	0.08037333
94	0x3d9b7c63	0.07592084
95	0xbdc91fd0	-0.09820521
96	0xbcd8ac3b	-0.026449313
97	0xbda06ad9	-0.078328796
98	0xbe0aabcf	-0.13542102
99	0x3d2b9a46	0.041895173
100	0x3dd02afa	0.10164447
101	0xbe149c99	-0.14512862
102	0x3cecd187	0.028908504
103	0x3d945f89	0.072447844
104	0x3cc53a4b	0.024075648
105	0x3c299222	0.010349782
106	0xbd82d254	-0.06387773
107	0xbd7d049b	-0.06177197
108	0x3d1c76d3	0.038199257
109	0x3cf834db	0.030298641
110	0xbddc4bc1	-0.107566364
111	0xbd4b5b95	-0.049647886
112	0xbe0c3ca3	-0.13695006
113	0xbe032466	-0.12806854
114	0xbdfe511f	-0.12417816
115	0xbdad7347	-0.08469253
116	0xbe02d85b	-0.12777846
117	0x3dcbeb2d	0.099569656
118	0x3de91f7b	0.113829575
119	0x3b87a5a8	0.004139621
120	0x3b31d416	0.002713447
121	0x3d333fc9	0.043762002
122	0x3db61ed6	0.088926
123	0x3d3e8958	0.0465177
124	0x3a6b5008	0.0008976464
125	0xbc0d4624	-0.00862268
126	0x3d6f334a	0.058398522
127	0x3d5791bb	0.052629214
128	0xbd8ec284	-0.06970695
129	0x3c1bd9c4	0.009512369
130	0xbb4605e8	-0.0030215923
131	0xbc2b5949	-0.010458299
132	0xbde880c5	-0.11352686
133	0x3dc37d79	0.095454164
134	0x3c8a3c6a	0.01687451
135	0xbd0dc687	-0.03461316
136	0x3d355bb9	0.044276927
137	0xbcca1e58	-0.024672672
138	0xbdd60bd7	-0.10451477
139	0xbd1021c0	-0.035188437
140	0xbdd38edb	-0.10329982
141	0x3dcfcc1b	0.10146352
142	0x3b3485b7	0.002754552
143	0xbcdaa5b9	-0.02669035
144	0xbe03adba	-0.1285924
145	0xbda840d9	-0.08215494
146	0x3d6c49ee	0.057687692
147	0xbdfc14ba	-0.12308641
148	0xbbfe04ec	-0.0077520516
149	0x3d833494	0.06406513
150	0xbde9ee99	-0.11422462
151	0x3d32d6ba	0.04366181
152	0xbe06fbc7	-0.13181983
153	0xbc801347	-0.015634192
154	0x3d95316b	0.07284816
155	0x3d86f4e8	0.06589681
156	0x3da909a6	0.082537934
157	0x3d99df34	0.07513276
158	0xbdeaffbc	-0.11474559
159	0x3baea1c7	0.005329344
160	0xbde2f19e	-0.11081241
161	0x3d360534	0.044438556
162	0x3cd6021d	0.026124055
163	0x3d862ef0	0.06551921
164	0x3ab04bd4	0.0013450333
165	0x3d30cd80	0.04316473
166	0xbc8ea946	-0.0174147
167	0xbde2cddd	-0.110744216
168	0xbe140f01	-0.14458849
169	0xbc96e5f3	-0.018420195
170	0xbe05f698	-0.1308235
171	0x3e6d49de	0.2317271
172	0xbd81175b	-0.06303283
173	0xbe531943	-0.20615105
174	0x3e94a8b0	0.29034948
175	0xbd235b59	-0.039882038
176	0xbe1a8667	-0.15090333
177	0x3d8a2eb8	0.06747192
178	0xbd963a84	-0.0733538
179	0xbe1fa7d2	-0.15591362
180	0x3d6f2e48	0.058393747
181	0xbd54c1ac	-0.051942512
182	0x3d3eb56c	0.046559736
183	0xbdc03010	-0.09384167
184	0xbd9005ca	-0.07032354
185	0x3d92c990	0.07167351
186	0x3d8d3154	0.06894174
187	0xbc4c2b49	-0.012461492
188	0x3d9f290d	0.07771502
189	0xbe1fa429	-0.15589966
190	0xbe29057b	-0.16505997
191	0xbc07dca8	-0.008292355
192	0x3c9ad2ea	0.0188994
193	0xbbf2f2fe	-0.007414221
194	0x3ddda773	0.10822954
195	0x3d24f2b3	0.04027052
196	0x3de85b8a	0.11345585
197	0x3dcb4fd9	0.09927339
198	0xbe590479	-0.21193112
199	0x3e0d4915	0.1379741
200	0x3cdf487e	0.027256247
201	0xbdd348f0	-0.10316646
202	0x3e2ff7fa	0.1718444
203	0xbd9991f6	-0.07498543
204	0x3afa937f	0.0019117444
205	0x3c44a41e	0.012002019
206	0xbd288d0b	-0.041150134
207	0x3e29f1e8	0.16596186
208	0x3ca2014b	0.019776007
209	0xbdb09451	-0.08622039
210	0xbd40f14d	-0.047105122
211	0xbd9fe15b	-0.07806655
212	0x3d648121	0.05578721
213	0xbe86b8d1	-0.2631288
214	0xbe511afc	-0.2042045
215	0x3d40f904	0.04711248
216	0x3e45daa3	0.19321685
217	0x3db5e0be	0.08880757
218	0xbe546cd5	-0.20744641
219	0xbd001010	-0.03126532
220	0x3d2a2bf9	0.04154584
221	0x3c0ebd5b	0.008712138
222	0xbd8ca90d	-0.068681814
223	0xbdcae427	-0.09906798
224	0x3ae45008	0.0017418871
225	0x3e018a90	0.12650514
226	0x3cbb300d	0.02285006
227	0xbe08b166	-0.13348922
228	0xbe04db7c	-0.12974352
229	0xbe00e835	-0.1258858
230	0x3dc7b651	0.09751571
231	0xbe3e1147	-0.18561278
232	0xbe324097	-0.17407452
233	0x3ce5381b	0.027980855
234	0x3e6d5add	0.23179193
235	0x3e9386c4	0.28813756
236	0xbe38c730	-0.18044734
237	0xbdd1e8fb	-0.102495156
238	0xbdf8d99d	-0.121508814
239	0xbd877f59	-0.066160865
240	0xbde41cfc	-0.11138341
241	0xbe788d3b	-0.24272625
242	0xbe3d693c	-0.18497175
243	0xbd282a58	-0.041056007
244	0xbb894881	-0.0041895513
245	0xbdb03e3c	-0.0860562
246	0x3da6b03b	0.08139082
247	0xbda0927e	-0.07840441
248	0x3dec499b	0.11537477
249	0x3d946431	0.072456725
250	0x3da32898	0.07966727
251	0x3d9723cb	0.07379874
252	0xbe85a6fb	-0.26103958
253	0x3df8e9aa	0.12153943
254	0x3c014e69	0.00789223
255	0xbded1cb7	-0.115777425

conv_block_2.0.bias f4 [10]
0	0xbdb26375	-0.08710376
1	0xbd87648e	-0.06610976
2	0x3f064f9e	0.52465236
3	0x3f192819	0.5982681
4	0xbdbea2e3	-0.09308412
5	0x3e474410	0.19459558
6	0xbd9dff63	-0.07714727
7	0xbcbed789	-0.023296135
8	0x3dfffdb0	0.12499559
9	0x3d6cbd6c	0.057797834

conv_block_2.2.weight f4 [10, 10, 3, 3]
0	0x3db3acac	0.08773169
1	0xbdabf7a7	-0.08396845
2	0x3cbe1d05	0.023207197
3	0x3d6ffa89	0.05858854
4	0x3d05b58a	0.032643832
5	0xbb3c5c6e	-0.0028741616
6	0xbd5061e2	-0.0508746
7	0xbd8e5895	-0.069504894
8	0xbdd3214b	-0.103090845
9	0xbc98871e	-0.018619116
10	0xbe43d611	-0.19124629
11	0xbb163400	-0.0022919178
12	0xbd608603	-0.054815304
13	0x3c305925	0.010763441
14	0xbda219d9	-0.07915086
15	0x3d4f71c2	0.050645597
16	0xbdf6d54d	-0.12052403
17	0x3cc7f860	0.024410427
18	0xbe12aae9	-0.1432301
19	0xbd2e4eae	-0.042555504
20	0x3e8ae334	0.27126467
21	0x3e3a63eb	0.18202178
22	0xbe60604f	-0.21911739
23	0x3e0340c3	0.12817673
24	0x3e3c4ac1	0.18387891
25	0xbe9745a8	-0.2954533
26	0xbe772860	-0.24136496
27	0x3d81cd86	0.063380286
28	0x3e779a6c	0.24180001
29	0xbdea88ef	-0.11451899
30	0xbdf285e1	-0.118419416
31	0x3ea07447	0.31338713
32	0xbe96eee2	-0.29479128
33	0xbe83c448	-0.25735688
34	0x3dfc0984	0.123065025
35	0xbe586bba	-0.21134844
36	0x3b21381e	0.00246001
37	0x3d78c8c0	0.060738325
38	0x3b747f8c	0.003730747
39	0x3d87b6b5	0.066266455
40	0xbd232aa3	-0.039835583
41	0x3da96e28	0.08272964
42	0x3ccd4edf	0.025062023
43	0xbd1101eb	-0.03540222
44	0x3d5058f1	0.05086607
45	0xbd015a6d	-0.031580377
46	0xbe8fff80	-0.2812462
47	0x3e76ce02	0.24102023
48	0x3e005821	0.12533619
49	0xbeda420a	-0.4262851
50	0x3de9ba48	0.114124835
51	0x3e2a57de	0.16635081
52	0xbee398f0	-0.4445262
53	0xbe0963ca	-0.13416973
54	0x3ce579f3	0.028012251
55	0x3d958c54	0.07302156
56	0x3d9ddab0	0.07707727
57	0xbd8b6882	-0.06807043
58	0xbd8e36d5	-0.06944052
59	0x3d492272	0.049105115
60	0x3dd3595b	0.103197776
61	0x3db5832e	0.08862911
62	0x3d2654a1	0.040608052
63	0x3dc872d5	0.097875275
64	0xbd372cec	-0.044720575
65	0xbb2b5500	-0.0026143193
66	0xbdb33b12	-0.08751501
67	0xbd819219	-0.06326694
68	0xbd917725	-0.07102803
69	0xbdc44b38	-0.09584659
70	0x3cf44eed	0.029822791
71	0x3cdf3b46	0.027249943
72	0x3dab589f	0.083665125
73	0x3eb759a0	0.35810566
74	0xbe0d6a15	-0.13809998
75	0xbd868bdb	-0.06569644
76	0x3df4cef1	0.119535334
77	0xbe20b611	-0.15694453
78	0x3de6933f	0.11258554
79	0xbd937a97	-0.072011165
80	0xbe4a1fb4	-0.19738656
81	0x3da23a06	0.07921223
82	0x3d87e4fd	0.06635473
83	0x3c8c3199	0.017113494
84	0xbcad8e59	-0.02118604
85	0xbe5cba72	-0.21555498
86	0x3da0d505	0.0785313
87	0x3e33db6e	0.17564175
88	0xbe2257c8	-0.15853798
89	0xbd438171	-0.047730867
90	0x3dd15d6a	0.102228954
91	0x3ceb7fbd	0.028747434
92	0x3dbf4706	0.093397185
93	0x3d185485	0.03718998
94	0x3ad3f17a	0.0016169988
95	0x3d672dc1	0.05644012
96	0x3d6b9001	0.05751038
97	0xbbee0c68	-0.0072646625
98	0x3c83675d	0.016040498
99	0xbd792cbe	-0.060833685
100	0x3d638abb	0.055552226
101	0x3b3de484	0.0028975317
102	0x3bc9af40	0.0061549246
103	0x3d9d65b3	0.07685413
104	0x3d6aa06e	0.057281904
105	0x3e0be246	0.13660535
106	0x3bb97ffc	0.005661009
107	0xbd9afd2b	-0.07567819
108	0x3d3367ca	0.043800153
109	0xbdd11697	-0.10209387
110	0xbd992225	-0.07477216
111	0xbd28515f	-0.041093227
112	0xbdc3a67e	-0.0955324
113	0xbd6210f0	-0.055191934
114	0xbdb7d3e0	-0.08975959
115	0xbe23d5d7	-0.15999542
116	0xbca3f577	-0.020014508
117	0xbd8cc8f2	-0.06874265
118	0x3eac07f0	0.33599806
119	0xbe0876f7	-0.13326631
120	0x3ea46df6	0.32115144
121	0x3e3c4f1b	0.18389551
122	0xbe881884	-0.26581204
123	0x3ea1a667	0.31572267
124	0xbc1ba180	-0.009498954
125	0xbea8b765	-0.3295242
126	0xbdd62feb	-0.104583584
127	0x3d3eea66	0.04661026
128	0x3db1385b	0.08653327
129	0xbcc4c724	-0.024020739
130	0xbcff18dc	-0.031139784
131	0xbdb80d28	-0.08986884
132	0x3d91c9f1	0.071185954
133	0xbd22a870	-0.039711416
134	0xbd467625	-0.048452515
135	0x3d9cabdc	0.07649967
136	0x3b86f53f	0.004118591
137	0x3c410abf	0.011782347
138	0xbd44fccc	-0.04809265
139	0xbcbed3ee	-0.023294415
140	0xbc9ed625	-0.019389221
141	0xbdbc73c5	-0.09201769
142	0xbda0cdb1	-0.078517325
143	0xbda3ae15	-0.07992188
144	0x3ca01af0	0.019544095
145	0xbd6034b3	-0.054737758
146	0x3d748662	0.05969847
147	0xbd94deb7	-0.07269042
148	0xbdb05e86	-0.08611779
149	0xbcabdcd0	-0.020979315
150	0x3da072df	0.0783441
151	0xbda402e2	-0.08008362
152	0xbd094f0d	-0.033522654
153	0xbc02b124	-0.007976804
154	0xbd363471	-0.044483606
155	0x3d52cad5	0.051462967
156	0x3dbe114e	0.09280644
157	0x3d6c6f0b	0.057723086
158	0xbcb2d397	-0.02182941
159	0xbda8df3a	-0.08245702
160	0xbdb2566d	-0.08707891
161	0xbccdd2bd	-0.025124902
162	0xbe2b862e	-0.16750404
163	0xbed9e732	-0.425592
164	0x3bf0636b	0.0073360703
165	0xbe36433a	-0.17799082
166	0xbe3c183b	-0.18368618
167	0xbdd0efbe	-0.10201977
168	0xbdf0c78b	-0.1175681
169	0xbdc29f2f	-0.09503018
170	0x3da15455	0.07877413
171	0xbe74855f	-0.23879002
172	0xbe909f95	-0.2824675
173	0x3d2cb81d	0.04216777
174	0xbe32bcab	-0.17454784
175	0xbd8ca6fe	-0.06867789
176	0x3e568983	0.20950894
177	0xbe4f4b04	-0.2024346
178	0xbd511523	-0.05104555
179	0x3ead1948	0.3380835
180	0xbd6f2232	-0.05838222
181	0xbd2eb3b3	-0.042651843
182	0x3d4a3b42	0.04937292
183	0x3c80d2f8	0.015725598
184	0x3d8ab2fb	0.06772419
185	0xbc69762b	-0.014249365
186	0x3dd11012	0.10208143
187	0x3d770336	0.060305797
188	0xbcfaa6d3	-0.030597126
189	0xbd8265d7	-0.06367081
190	0xbd027a89	-0.03185514
191	0xbdcab9d3	-0.098987244
192	0xbdf22cdd	-0.11824963
193	0xbc97600c	-0.018478416
194	0xbbb43224	-0.0054991413
195	0xbd697c2b	-0.05700318
196	0xbd91957d	-0.07108591
197	0x3d3c94c4	0.04604031
198	0xbe2f31b4	-0.17108804
199	0xbdc7a9d1	-0.09749187
200	0xbe3b5208	-0.18293011
201	0xbe78ec6d	-0.2430894
202	0xbd76b79d	-0.0602337
203	0xbe445945	-0.19174679
204	0xbe907147	-0.28211424
205	0xbde9a5cb	-0.114085756
206	0x3db18112	0.08667196
207	0xbcecc0b9	-0.028900491
208	0xbe84ae3d	-0.25914183
209	0x3c53212d	0.012886328
210	0x3da12a1a	0.07869358
211	0xbe86907a	-0.26282102
212	0xbe22017b	-0.15820877
213	0xbde1be65	-0.11022643
214	0xbe1162c6	-0.14197835
215	0xbe5c3270	-0.21503615
216	0xbbb2e53a	-0.005459455
217	0x3d8acae6	0.06776981
218	0xbc838bd6	-0.01605789
219	0xbd703c6a	-0.058651365
220	0x3cfafc39	0.030637847
221	0xbd7236ef	-0.05913442
222	0x3d863375	0.065527834
223	0x3db189bc	0.08668849
224	0x3c9033d4	0.017602839
225	0xbe33bf33	-0.17553405
226	0xbe42b88c	-0.19015712
227	0xbd9f78fb	-0.07786747
228	0xbe738b50	-0.23783612
229	0xbea17bde	-0.31539816
230	0xbea80f62	-0.32824236
231	0xbe607d8e	-0.21922895
232	0xbee01577	-0.43766376
233	0xbed7a901	-0.42121127
234	0x3da40177	0.08008092
235	0x3d762435	0.060093123
236	0xbd98b22a	-0.07455857
237	0xbdab0215	-0.083500065
238	0x3dbb652c	0.091501564
239	0x3c99cbc5	0.018773923
240	0x3d44fb25	0.048091073
241	0x3c6920d1	0.014229015
242	0xbd3e3640	-0.046438456
243	0xbd5eacd8	-0.054364055
244	0x3d5fb58f	0.054616507
245	0xbdd51f1e	-0.10406326
246	0xbdaf315b	-0.08554336
247	0x3cf75f1c	0.030196719
248	0xbce5f1c3	-0.028069383
249	0x3cb1eb7d	0.021718735
250	0x3d6754e3	0.05647744
251	0xbd7c921d	-0.061662782
252	0x3e463bfc	0.1935882
253	0x3d06c0ad	0.032898594
254	0x3c96ea71	0.018422337
255	0x3e145066	0.14483795

conv_block_2.2.bias f4 [10]
0	0xbe6be2a5	-0.23035677
1	0xbd9f7ccd	-0.07787476
2	0x3c3703af	0.011170312
3	0x3e47c2bc	0.19507879
4	0x3e2addad	0.16686125
5	0x3ef3d1ab	0.476209
6	0x3e193c2e	0.14964363
7	0x3da4d0d3	0.080476426
8	0x3e4450ab	0.19171397
9	0xbcddfb93	-0.027097499

classifier.1.weight f4 [10, 490]
0	0xbd34d2d4	-0.044146374
1	0x3e33b7c6	0.17550573
2	0xbe09b87c	-0.13449281
3	0xbd59a86d	-0.05313914
4	0xbdff8d7b	-0.12478157
5	0x3ddcc348	0.107794344
6	0x3d145389	0.036212478
7	0xbc82b640	-0.015956044
8	0x3e0b45de	0.13600871
9	0x3e03bfb4	0.12866098
10	0xbd55c00b	-0.0521851
11	0xbd94a985	-0.07258896
12	0xbe19c532	-0.1501663
13	0x3df11b8f	0.117728345
14	0xbd86f831	-0.065903075
15	0x3e3ae2f2	0.18250635
16	0x3e1e7825	0.15475519
17	0xbd848c0e	-0.06472026
18	0xbce794a0	-0.028269112
19	0xbe0bbd73	-0.13646488
20	0xbd06824c	-0.032839105
21	0xbd206bd4	-0.039165333
22	0x3e4aaae4	0.19791752
23	0x3d473b1d	0.04864036
24	0xbd56986f	-0.052391466
25	0xbcabef13	-0.020988023
26	0xbe00a667	-0.12563477
27	0xbdf78762	-0.12086369
28	0x3c0fde6a	0.008781055
29	0x3d7235c1	0.059133295
30	0xbdb8f999	-0.09031982
31	0xbdca72df	-0.09885191
32	0x3e03e97c	0.12882036
33	0xbd1c74c6	-0.0381973
34	0xbd7cef29	-0.06175152
35	0x3d3538a0	0.044243455
36	0xbcdc1399	-0.026864814
37	0xbd4955b4	-0.049154
38	0xbe05d011	-0.13067652
39	0xbc48e4db	-0.012261595
40	0x3e04b4fe	0.12959668
41	0x3b99733e	0.0046829274
42	0x3d846eeb	0.064664684
43	0xbce9a2d6	-0.028520029
44	0xbcbfe2dd	-0.023423607
45	0xbdea874e	-0.114515886
46	0xbe1356a8	-0.14388525
47	0x3b4bfa1a	0.0031124414
48	0xbb9fcfcb	-0.004877066
49	0xbc9e27ed	-0.019306147
50	0x3b9508f1	0.004548185
51	0xbc3fce4b	-0.011706899
52	0xbdc07e6f	-0.09399115
53	0xbe1c9776	-0.15292153
54	0xbc15de81	-0.009147287
55	0xbc1e4f0d	-0.009662402
56	0xbc5b0b89	-0.013369449
57	0x3cd53228	0.026024893
58	0xbc0c82d1	-0.008576111
59	0xbd5df3aa	-0.054187454
60	0xbdeeeb67	-0.11665993
61	0xbb9332f1	-0.0044921567
62	0x3d0ea1f9	0.034822438
63	0xb9621a0b	-0.00021562741
64	0x3c2d408c	0.010574471
65	0xbdaa6237	-0.08319514
66	0x3c82a7ad	0.015949095
67	0xbd3a0852	-0.04541809
68	0x3c0c8ca6	0.008578455
69	0xbdc863bc	-0.09784648
70	0x3bf7364f	0.007544316
71	0x3c67bed8	0.014144622
72	0xbcce027f	-0.025147675
73	0xbd55dd0f	-0.05221277
74	0x3da00f28	0.07815391
75	0x3e173482	0.14766124
76	0xbe22ef3d	-0.15911575
77	0xbbfc160f	-0.0076930593
78	0xbc41aff3	-0.011821735
79	0xbce6dd80	-0.028181791
80	0xbd4bca9c	-0.04975377
81	0x3d3dc298	0.046328157
82	0x3e04bda0	0.12962961
83	0xbd7567ac	-0.059913322
84	0xbd12f4b5	-0.035877902
85	0xbd4f9cd7	-0.050686684
86	0xbb9935ac	-0.0046755876
87	0xbc965695	-0.018351832
88	0xbc1093f0	-0.008824334
89	0x3cb07c91	0.021543773
90	0xbd20ced7	-0.039259758
91	0x3cb7aae6	0.022420358
92	0xbbddf471	-0.0067735245
93	0xbaf2becb	-0.0018519996
94	0xbdea3263	-0.11435392
95	0xbd4d397d	-0.050103653
96	0x3da2b154	0.07943979
97	0xbd1dbb89	-0.038508926
98	0xbb1a586a	-0.0023551234
99	0xbda1f873	-0.07908716
100	0x3e645d28	0.22301161
101	0x3e86e6d2	0.26347977
102	0xbd1bb2b7	-0.038012233
103	0xbedd21af	-0.4318976
104	0xbdf2fccc	-0.118646234
105	0xbe9f3001	-0.31091312
106	0xbeef8183	-0.46778497
107	0xbd00d720	-0.03145516
108	0x3cfe9fe1	0.031082096
109	0xbcd95734	-0.02653084
110	0xbe7bf3b0	-0.24604678
111	0xbe39062e	-0.18068764
112	0x3dc68b5f	0.09694552
113	0xbd93777e	-0.07200526
114	0x3cb61d6e	0.02223083
115	0x3dc47e21	0.0959437
116	0xbbbc48fd	-0.0057460056
117	0x3d77120c	0.060319945
118	0x3d88030a	0.06641205
119	0x3e4f039e	0.20216224
120	0x3dab6a01	0.08369828
121	0xbd5d006c	-0.05395548
122	0xbb3762c5	-0.0027982455
123	0xbd079371	-0.033099595
124	0x3eb23670	0.34807158
125	0x3e804cd7	0.25058624
126	0x3e1b6db0	0.15178561
127	0xbe8ae85c	-0.271304
128	0x3d6e0295	0.05810793
129	0x3dbe6a2d	0.09297595
130	0x3daacded	0.083400585
131	0x3eb67f7e	0.35644144
132	0x3e6919ae	0.22763702
133	0x3d17a16f	0.03701919
134	0xbe51b8f0	-0.20480704
135	0xbd57a3bd	-0.052646387
136	0x3c32a11b	0.010902668
137	0x3c9974b2	0.018732402
138	0x3e81e8c4	0.253729
139	0x3ea77f4c	0.32714307
140	0xbd51bd68	-0.051206023
141	0x3cd27d91	0.02569464
142	0x3dc5ff66	0.09667854
143	0xbddbec54	-0.107384354
144	0xbbe33842	-0.0069341967
145	0x3db5f428	0.0888446
146	0x3e623d9a	0.22093812
147	0xb9452ced	-0.0001880412
148	0xbcbd869e	-0.02313548
149	0xbdb7aa8d	-0.08968077
150	0x3dcf38ff	0.10118293
151	0x3e0270a0	0.12738276
152	0x3ead41fe	0.3383941
153	0x3dae8637	0.08521693
154	0x3c84f249	0.016228812
155	0x3d5d699d	0.0540558
156	0xbd0ef59e	-0.034902208
157	0x3e0b7611	0.13619258
158	0x3cbc6188	0.022995725
159	0x3dfac8db	0.122453414
160	0x3e836af0	0.25667524
161	0xbd217d84	-0.03942634
162	0x3dcfded2	0.101499215
163	0x3e07f851	0.13278319
164	0x3e32f0e9	0.17474712
165	0x3e3c3d62	0.1838279
166	0x3df44d6d	0.1192883
167	0x3e80cdab	0.25156912
168	0x3c1604c8	0.009156413
169	0x3d99c9de	0.07509206
170	0x3c9edb53	0.019391691
171	0x3c474d2b	0.012164394
172	0xbd4de927	-0.05027118
173	0xbe55bccd	-0.20872803
174	0xbc8a2c6b	-0.016866883
175	0xbcad1cb4	-0.02113185
176	0xbcf2bac7	-0.029630078
177	0xbd9b43f9	-0.07581324
178	0x3c4ca135	0.012489607
179	0xbcb913c8	-0.02259244
180	0xbe469700	-0.1939354
181	0xbd7d5f2b	-0.061858337
182	0xbccff5b5	-0.025385717
183	0xbb99d3e3	-0.0046944483
184	0xbd65ac12	-0.056072302
185	0xbdadfd2f	-0.084955566
186	0xbdb51a51	-0.0884291
187	0xbd76db87	-0.06026795
188	0xbdfd6fe1	-0.12374855
189	0x3ad3e4c1	0.0016166196
190	0x3d27d252	0.04097206
191	0x3d1ca5b1	0.038243953
192	0x3dfc2b77	0.12312978
193	0xbca66714	-0.020312823
194	0x3e34f34a	0.17670932
195	0xbe267808	-0.16256726
196	0x3d8c917b	0.06863686
197	0x3baf602d	0.005352041
198	0x3d57ee65	0.052717585
199	0x3c9f05b2	0.019411895
200	0x3ccef170	0.02526161
201	0x3c847275	0.016167859
202	0x3cb0d276	0.02158473
203	0x3c26fafb	0.010191674
204	0x3b8339e6	0.0040047048
205	0x3cdff7ae	0.027339783
206	0xbd2a728b	-0.041613143
207	0xbd22dd85	-0.03976204
208	0x3d92a4e1	0.071603544
209	0x3d552f61	0.052047137
210	0xbd623146	-0.055222772
211	0xbcb666cc	-0.022265814
212	0x3d358207	0.044313457
213	0xbb1eea14	-0.0024248408
214	0x3c29eea1	0.010371835
215	0xbc0bcbff	-0.008532523
216	0x3d4c250c	0.04984002
217	0xbcd3710e	-0.025810745
218	0xbd08eca5	-0.033428807
219	0x3cb39882	0.021923307
220	0x3cb80751	0.022464426
221	0x3d64d71a	0.0558692
222	0xbd1ff7fa	-0.03905485
223	0xbd84f2ff	-0.0649166
224	0xbc693f1e	-0.01423624
225	0xbd6275d8	-0.055288166
226	0xbd37ed4b	-0.044904035
227	0xbd37bf51	-0.044860188
228	0x3d49a6fc	0.049231514
229	0x3c688f06	0.014194256
230	0xbcb8e606	-0.022570621
231	0x3c35dc72	0.011099922
232	0xbcc6e4b5	-0.024278978
233	0xbc99eeb4	-0.01879058
234	0x3aed1aab	0.0018089613
235	0x3cfdc4a3	0.030977553
236	0xbccfc246	-0.025361191
237	0xbd81d3a9	-0.06339199
238	0xbcbf3acb	-0.023343464
239	0xbd406674	-0.046972707
240	0xbd2d8b09	-0.042368922
241	0xbcbc756f	-0.023005215
242	0x3cad58a0	0.021160424
243	0x3da0dfe5	0.078552045
244	0xbd0639ff	-0.032770153
245	0x3e111ae3	0.14170413
246	0x3d18aae5	0.037272353
247	0x3e396370	0.18104339
248	0x3e3e8dd1	0.18608786
249	0x3dbceb26	0.092245385
250	0x3d37806e	0.044800214
251	0xbcad14b8	-0.021128044
252	0x3d7ab5e8	0.061208636
253	0x3d82dd27	0.06389838
254	0x3decec17	0.11568468
255	0x3d5a7a52	0.05333931

classifier.1.bias f4 [10]
0	0x3e14a4db	0.14516012
1	0xbe11f241	-0.14252569
2	0x3ec13537	0.37735912
3	0x3c79809b	0.015228416
4	0xbed9fea6	-0.42577094
5	0xbc62789b	-0.0138227
6	0x3e48bef1	0.19604088
7	0x3d06ca49	0.032907758
8	0x3da6ca0f	0.08144008
9	0xbe559f3f	-0.20861529
